neuralnet_weights.pth (torch, 735592 bytes, 49 tensors)

linear_layers.0.0.weight f4 [256, 518]
000000 d9 43 00 3e b4 59 6e be ce 86 8a 3d 71 19 3d 3e
       0.12525882 -0.23276407 0.06763993 0.18466736
000010 62 a6 90 bd b8 71 17 3e 61 05 1f be 2b 2c e6 3d
       -0.07062985 0.14789474 -0.15529396 0.11238893
000020 77 42 8c 3e be d9 99 3e d7 b3 86 3d 45 9a 5d 3e
       0.2739446 0.30048937 0.065772705 0.2164088
000030 bd 5c ed 3e b3 7b c1 3d 64 5b b4 be 09 4f 82 3d
       0.46359816 0.09447422 -0.35225976 0.06362731
000040 1c 78 56 3e a5 47 d0 3e 04 0b d9 bd 5c 30 3c 3d
       0.20944256 0.4067966 -0.10597804 0.045944557
000050 88 c5 87 3e 38 4c ed 3d 25 ea 8a bc 78 fc 58 3e
       0.26517892 0.11586803 -0.016957352 0.21190059
000060 94 c0 df 3b d6 8b 9d 3d 68 d2 5d 3e 3a 71 38 bd
       0.006828377 0.07692687 0.21662295 -0.045029856
000070 a4 8a 5b 3d 75 b6 19 3d 6a fa cd 3e 60 3b a1 be
       0.053599015 0.03752752 0.40230113 -0.31490612
000080 d4 c9 bd 3e 18 c4 b7 bb 5b 84 9e 3e 28 6d 82 3e
       0.37068045 -0.005608093 0.30960354 0.25473905
000090 df 01 10 bd 3f 0b 62 3e e6 d8 08 bd 57 1e 05 be
       -0.035158034 0.22074603 -0.033409975 -0.12999855
0000a0 4e 2b 37 3d f0 45 55 3d 31 15 37 be ab 7f 04 3e
       0.044719033 0.05206865 -0.17879178 0.12939326
0000b0 a9 0f 3f bd 24 dd 5f 3e 45 c0 11 3e da 69 a9 3e
       -0.046645794 0.21861702 0.14233501 0.3308857
0000c0 10 8c 7f 3e ad 97 f6 3d 51 67 3f be 62 31 84 bd
       0.24955773 0.120406486 -0.18691756 -0.064547315
0000d0 5f c6 9f be f5 cd 15 3e 1f bc 88 3e 24 e3 a1 bc
       -0.31206033 0.14629348 0.26706025 -0.01976163
0000e0 f4 0a 90 be 4c 66 3a 3e 64 0b a2 be eb 4c 74 3c
       -0.28133357 0.18203086 -0.31649315 0.014910917
0000f0 d5 2e 7f 3e ee 16 78 be ce 74 9f 3e 4b 15 19 bf
       0.24920209 -0.24227497 0.31143802 -0.59798115
000100 e4 cb 9b be 8c e0 c3 3c 24 c6 6e bc a3 9d 06 3e
       -0.30428994 0.023910783 -0.014573608 0.13146071
000110 b5 af c8 3d 46 33 ea 3d 33 d0 6f bd 2f a8 b0 3e
       0.097991385 0.11435561 -0.058548164 0.34503314
000120 71 34 f4 3d d2 8f 89 3e 74 b0 1e 3e 35 9e 31 3e
       0.11924065 0.2686754 0.15496999 0.17345507
000130 9c b8 94 bd 3b ae 29 3e ea 5c 23 be 0e f8 1d 3e
       -0.07261774 0.1657037 -0.15953413 0.15426657
000140 94 e2 79 be 6a 8b dc bd c5 e0 de bd ff 6b be 3d
       -0.24402839 -0.107687786 -0.10882715 0.09297942
000150 64 fe 99 bd 60 f9 13 3e 3c 10 b7 3e 25 8e 4e be
       -0.07519224 0.14450598 0.35754573 -0.20171411
000160 18 f8 3c bd 0d 1e 3d 3e 32 cb 76 be 2a be 45 3e
       -0.04613504 0.18468495 -0.2410095 0.19310823
000170 e6 ee 54 3d b3 a9 0f be a1 ed 69 3d 11 bb ea 3d
       0.051985644 -0.14029579 0.057111386 0.11461461
000180 87 ef 5f bd a2 79 88 3e 0c 5c 84 3d a1 40 31 be
       -0.05467179 0.26655298 0.06462869 -0.1730981
000190 1a 48 51 3e ed 36 6a bd 67 65 d9 3d e9 a7 04 be
       0.20437661 -0.057181288 0.10615044 -0.12954678
0001a0 1f 7c 87 be 91 e0 97 3d bd 17 41 be 7c c2 dc bd
       -0.26461884 0.074158795 -0.18856712 -0.107792825
0001b0 34 1f ba be 41 19 8f 3b 92 6b d4 bc 5b 16 10 3e
       -0.3635193 0.004367024 -0.0259302 0.14071028
0001c0 50 32 63 bd b4 a1 78 be 19 74 80 3e e8 25 0b bd
       -0.055467904 -0.24280435 0.25088575 -0.033971697
0001d0 86 b4 82 3e ae 4e 5d 3d 2b b3 32 be 2b 31 5d be
       0.25528353 0.054030113 -0.1745116 -0.21600787
0001e0 50 33 fe bc f5 dd b4 3e 67 81 3d 3e 44 29 85 3e
       -0.031030327 0.3532559 0.18506394 0.26008046
0001f0 cc 22 b0 3e a8 b5 8c be 35 0d eb 3d 28 e0 84 3e
       0.34401548 -0.27482343 0.114771284 0.25952268
000200 80 53 81 be 13 de 93 3e 98 e0 4a be 47 77 77 bd
       -0.25259018 0.28880367 -0.19812238 -0.060416486
000210 a4 23 0a 3c b5 2d 00 3e 51 88 f1 bd 8f 17 7e be
       0.008431349 0.12517436 -0.117935784 -0.24813674
000220 9e 40 ab 3d ee 4f 63 be 94 30 9b 3d bd 34 d6 be
       0.08361934 -0.2219846 0.07577625 -0.4183711
000230 ee fe 36 3e b8 8d 8c bc 89 e2 fe 3d 19 74 39 bc
       0.17870685 -0.01715742 0.12445552 -0.011319184
000240 89 c6 c7 3b 40 a3 74 be 1a 5b cf 3c f3 a8 dc 3d
       0.0060966653 -0.238904 0.025311995 0.10774412
000250 98 c7 b8 be 21 0f 55 3c 49 82 7b bd 80 e9 d5 bd
       -0.36089778 0.013004095 -0.061403546 -0.10444927
000260 48 e3 38 3e 3d 2f ec bd b7 ef 05 be 39 8e 4a 3e
       0.18055451 -0.115324475 -0.13079725 0.19780816
000270 6a 07 ed 3d a9 17 e2 be 1e 2a bd be 40 4f 5a be
       0.1157368 -0.44158676 -0.36946195 -0.21319294
000280 02 b3 2e 3d a1 63 06 3e e9 4f 0b 3e ba 3d 4b 3b
       0.042651184 0.13123943 0.13604702 0.0031012134
000290 c8 58 39 bd 58 1c 84 3e 0c ea 4f be 59 f4 e1 3d
       -0.045250684 0.25802875 -0.20304126 0.11032934
0002a0 64 76 9e bc fc b7 ab bc b7 aa 4c bd 99 fa 9d be
       -0.019343562 -0.020961754 -0.049967494 -0.30855253
0002b0 7c 61 0f be ca 04 13 be d8 9d 5a bd 5f c2 b4 be
       -0.14002031 -0.14357296 -0.053373188 -0.35304543
0002c0 c9 23 59 3e 8c 8d fc 3d 8e e7 e8 bd 9c 49 29 3e
       0.21205057 0.123316854 -0.113722906 0.16531986
0002d0 07 4f 8e be 9a a3 72 3a f1 24 5c 3e e0 2a 16 3c
       -0.27794668 0.0009255946 0.21498467 0.009165496
0002e0 ff eb b8 3e 96 be 59 be ce 52 df 3d ef 06 bc bb
       0.3611755 -0.21264109 0.109044656 -0.0057381312
0002f0 cb d6 32 3e 4b 6e db 3c 2b 23 ed be 26 64 f1 3d
       0.1746475 0.02678599 -0.46315894 0.1178668
000300 d1 ae f3 3d 5c 41 d3 be c7 af e1 3e 3b 3e 69 be
       0.11898578 -0.41260803 0.4407942 -0.22777645
000310 6f b8 87 bc 30 ec 0d 3e e2 76 38 3e 55 9e ae 3d
       -0.016567437 0.1385963 0.180141 0.08526293
000320 55 72 eb 3e f4 ee 75 3e 43 13 34 be 4b 73 1c 3d
       0.45985666 0.24016935 -0.17585473 0.03819589
000330 49 b8 d5 3d d8 a2 00 3f 5c 3b 41 bd df 03 c0 3d
       0.1043554 0.5024848 -0.04717575 0.09375738
000340 f9 ce 02 3c ef 55 ed 3e 8a cd 8c 3e b2 79 56 be
       0.007983916 0.46354625 0.27500564 -0.2094486
000350 d6 e8 a7 be c4 4b e0 3d e4 96 21 bd 81 c1 a7 bd
       -0.32794827 0.10951951 -0.03945054 -0.08191205
000360 d1 46 83 3e b3 58 f9 bd 81 6e 6b be 12 81 5f 3d
       0.25639966 -0.12175121 -0.22991373 0.05456645
000370 65 58 98 bd be 0e 1f 3f 36 da 26 3e 40 85 87 be
       -0.07438735 0.6213187 0.16294178 -0.2646885
000380 c8 08 32 3e db 15 58 3e 60 01 57 be 7a 3d c9 bc
       0.17386162 0.21102087 -0.20996618 -0.024565447
000390 dd fb 46 bd 93 8b 2e 3e c8 8e a4 3e b0 52 ca bd
       -0.04858004 0.17045431 0.32140183 -0.09879053
0003a0 19 40 8b 3e d2 ae 09 3e e2 98 d0 bd 90 a2 0b 3e
       0.2719734 0.13445595 -0.1018541 0.13636231
0003b0 18 fd c6 bd 50 b2 97 be d8 1a ec bc 77 19 d7 bd
       -0.097162426 -0.2962823 -0.028821394 -0.10502904
0003c0 73 53 d4 be f9 13 8f 3e 0e b7 b8 3d 8f 39 c5 be
       -0.41469917 0.27944925 0.0901929 -0.38520476
0003d0 9f 9d 99 be 28 bd 8a bd d7 d1 0b be e9 d0 2d 3e
       -0.30003068 -0.0677436 -0.13654266 0.16974224
0003e0 99 dd 10 3e 05 02 a2 be 3f d9 f8 3e ab 40 40 3e
       0.14147033 -0.31642166 0.48603246 0.18774669
0003f0 80 62 80 3e a9 08 39 3d 4c f1 3a 3b 23 d8 28 3f
       0.2507515 0.045174275 0.0028525172 0.659548

linear_layers.0.0.bias f4 [256]
000000 a4 65 8a bb d1 5b 09 bd a8 d0 1b 3d e8 f5 e0 bc
       -0.0042235423 -0.03353483 0.038040787 -0.027461007
000010 e3 a9 f4 ba b8 6f d4 bc 79 a2 66 3c e3 11 a4 3b
       -0.0018666353 -0.025932178 0.014076822 0.005007015
000020 d4 46 95 bc 79 64 81 bc d9 a9 07 3c 80 11 61 bc
       -0.01822225 -0.01579498 0.008280241 -0.0137370825
000030 e3 8b 01 bd 69 4f d6 3b da 91 2b 3d 18 e7 cf bb
       -0.031627547 0.006540228 0.04188714 -0.006344687
000040 ff 45 73 3c 9e d2 b8 3c c7 67 12 3b d4 e0 24 3d
       0.014848231 0.022561368 0.0022339688 0.040253475
000050 fc bf c6 bc 1d bd 7d bb 0a b7 30 bc 0d 4c 73 bb
       -0.024261467 -0.0038717457 -0.010785827 -0.0037124187
000060 35 0e 63 3c bd 0a 7d bc 15 ab a0 bc ee a4 dc 3c
       0.013858368 -0.015444455 -0.019612828 0.026934113
000070 92 60 7d bd b5 bd f8 3c ea 53 15 bd fd d2 9f bc
       -0.061859675 0.030363897 -0.03645698 -0.019509787
000080 42 b4 30 3c 71 ae 03 bd 2a 86 01 3d a1 1e 21 3d
       0.010785164 -0.032148782 0.03162209 0.03933585
000090 6d 93 1a 3d 50 a5 3f 3c fb 1f 16 3c bc f7 f6 bc
       0.037738252 0.011697128 0.009162898 -0.030147426
0000a0 2f 26 02 3d 28 94 88 3c 7e 59 9b bc 71 b2 66 bc
       0.031774696 0.016672209 -0.018963572 -0.01408063
0000b0 20 2a 7c 3c 3a 02 9a 3c 28 1a b3 bc 1e a8 27 bc
       0.015390903 0.01879989 -0.021863058 -0.010232953
0000c0 77 3b 78 3c b1 4c 28 3d f0 b6 32 3d 04 ea 12 bd
       0.015150896 0.041088764 0.043631494 -0.035867706
0000d0 2e cd be 3c 9e 26 e8 bc f4 c2 09 bd c9 d3 28 3b
       0.023291197 -0.028338727 -0.033633187 0.0025761
0000e0 19 8e 03 3d 67 1e 71 3c 75 9b a2 bc 89 73 1a 3c
       0.032117937 0.014716721 -0.019849518 0.00942696
0000f0 d6 8e e0 bc 0b 0b 7c bc 5e 4b 3d 3d c6 00 33 bd
       -0.02741186 -0.015383492 0.046214454 -0.04370191
000100 67 b9 1d 3d ac 54 82 bb ae a2 d0 bc 84 db 30 bc
       0.03850689 -0.003977379 -0.025468197 -0.010794524
000110 3d 27 c1 3c 92 6a 94 bc 4d 3e e0 3c 13 1b ed bc
       0.02357828 -0.018117223 0.027373457 -0.028943574
000120 c7 d7 76 3c d6 fe 8a 3c b4 42 3c bd 18 1a e0 bc
       0.015066094 0.016967218 -0.04596205 -0.027356192
000130 cf ef 12 3d e5 77 9d bc 36 c9 ef 3c 8a 5d 82 bb
       0.03587323 -0.01922221 0.02927075 -0.003978436
000140 94 3b 2c 3c d1 f3 1f bd c2 4b 2c bd db e8 32 bd
       0.010512251 -0.03905088 -0.042064436 -0.0436791
000150 b4 21 0f bb ec 71 bb 3b 62 d8 99 bc c1 12 8c 3b
       -0.0021840157 0.0057203677 -0.018779937 0.0042746966
000160 e1 26 99 3c 9c 1a 9a 3c 4a 07 f1 bc a3 b7 1b bc
       0.018695297 0.018811516 -0.029422421 -0.009504232
000170 d0 d6 f0 3a 13 2b fa 3c fb 20 39 3c b6 eb eb 3c
       0.0018374566 0.030538118 0.011299367 0.02879892
000180 a2 ba 29 bd f4 ea 0f bd 8e 10 0b bd 9f 55 ad 3c
       -0.041437753 -0.035136178 -0.033951335 0.021158991
000190 78 50 eb bb 51 ff fc bc 50 d8 ce 3c 13 5c 4f 3c
       -0.0071812235 -0.030883463 0.02524963 0.01265623
0001a0 b9 1c 63 bd 34 e4 a9 bc 63 e8 49 3c 5e b6 15 39
       -0.055447314 -0.020738699 0.012323472 0.00014277684
0001b0 34 e9 bd bc d2 2a 05 bc b5 a1 1d 3c b1 84 cb bc
       -0.023182489 -0.008127885 0.0096210735 -0.024843546
0001c0 6f 2a cb bc 22 9e 51 bc 7d b6 0d bd 4c 1f 39 3d
       -0.024800507 -0.012794049 -0.034597863 0.045195863
0001d0 4a c5 ed ba a5 ba 02 bc 0b 78 62 3c a0 88 21 bd
       -0.0018140462 -0.00797907 0.013822566 -0.039436936
0001e0 47 40 fb bc a2 03 35 3d fd b2 d1 3b 5d 43 26 3d
       -0.030670298 0.044192918 0.006399511 0.040591586
0001f0 75 e9 30 3d 62 09 8c 3c fe 8f d6 3b 59 99 32 bc
       0.043191392 0.017094318 0.006547927 -0.010900819
000200 44 10 98 bc 83 23 20 bd 53 7b 48 3c 1c 0c 8c 3b
       -0.018562444 -0.039096367 0.012236434 0.0042739045
000210 c7 25 07 3d 52 65 96 bc 52 a6 9f 3c 61 17 15 bd
       0.03299501 -0.01835886 0.019488487 -0.03639925
000220 41 7e 98 bc e1 8d 00 bd 76 8f 23 3b b2 11 d5 bc
       -0.01861489 -0.031385306 0.0024957336 -0.026009414
000230 73 5c 92 bc 24 61 cc bc 21 43 70 bc 1e 46 2d bd
       -0.017866349 -0.024948664 -0.014664442 -0.042303197
000240 59 89 25 3d b4 d0 cc 3c f5 cf b5 3c 8f 1f 3b 3c
       0.040414188 0.025001861 0.022193888 0.011421098
000250 25 19 a4 bc a0 79 2d bc 8c 56 c7 bc b2 4b e4 3c
       -0.020031521 -0.01058808 -0.024333261 0.027868126
000260 79 05 5c 3a 26 78 4a 3d 38 13 f8 bb 69 a2 c3 3b
       0.00083931495 0.04943099 -0.0075706504 0.0059702885
000270 e7 f8 cb 3b f1 e6 d3 3b 13 1b a2 bc 58 aa 39 3d
       0.00622474 0.0064667393 -0.0197883 0.045328468
000280 af c1 2f 3d a5 2f f6 bc 59 8f c5 3c df c4 a5 bc
       0.04290932 -0.030052016 0.024116205 -0.020235477
000290 98 eb de 3c 85 9e aa ba d3 82 99 3c 17 ee ce bc
       0.02721195 -0.0013017213 0.01873914 -0.025260014
0002a0 ee 56 a6 bb f4 09 11 3d af 29 da 3c 64 2a e9 3c
       -0.005076281 0.035409883 0.026631204 0.028462596
0002b0 24 9c 00 3d d8 57 7a bb 82 b2 a7 3c be 13 81 bc
       0.031398907 -0.0038199332 0.020470861 -0.015756484
0002c0 64 5f 00 3d ce ef 00 3d 84 ad 09 bd 1c 09 14 3c
       0.03134097 0.031478696 -0.033612743 0.009035375
0002d0 5e 70 f8 bc 39 bf 1f 3d 81 fd 27 3d 9b 66 2a 3d
       -0.030327018 0.039000724 0.041013245 0.04160176
0002e0 c7 60 c5 39 b6 1c e6 bb 70 61 3d 3c d6 39 c5 3b
       0.00037646873 -0.0070224656 0.011558875 0.0060188575
0002f0 72 28 dc bc 1d 10 ee 3c 48 b8 e0 bb d1 d7 50 bb
       -0.026874755 0.029060418 -0.0068579055 -0.0031866918
000300 cc f2 30 3d d1 2e 2f bd 33 07 33 3b 2c d5 b8 bc
       0.0432003 -0.042769257 0.0027317523 -0.022562586
000310 7a a0 0e bd f2 1e 49 3b 34 c8 c2 3c 87 21 9e 3c
       -0.03482101 0.003068861 0.023777105 0.019303096
000320 f0 2d 58 3c bd f4 27 3d f1 f9 78 bc 77 5a 08 bd
       0.013194546 0.041004885 -0.015196309 -0.0332894
000330 e2 a6 a4 3a 61 72 09 3d c0 55 12 3c ae 30 fe bc
       0.0012561942 0.033556346 0.008931577 -0.031029072
000340 04 80 bf 3b 43 4a 21 3c fc c9 b7 3c e9 43 2d 3d
       0.005844118 0.0098443655 0.02243518 0.042301092
000350 6e 3a ac 3c 2f e8 fd 3c e3 50 ae 3c 98 0d e3 bc
       0.021023955 0.030994503 0.021278804 -0.027716443
000360 4b e4 0e 3d f0 d1 17 3c 83 a4 66 bd 14 9f 35 3d
       0.034885686 0.009266362 -0.056309234 0.04434116
000370 66 05 10 3d 6f 85 d7 3c 03 44 0d 3d a4 dc bb 3b
       0.0351614 0.026308743 0.03448869 0.0057330895
000380 50 e2 82 3c 1a 1e e8 3c dd 3d 43 bd e9 a3 cd 3c
       0.015977055 0.028334666 -0.04766642 0.025102573
000390 2a ee fb bc 97 3b b8 bc 1a 3c 3c bc 86 48 81 3d
       -0.030753214 -0.022489352 -0.011488939 0.06312661
0003a0 dd 82 34 bb 97 e4 40 3c 43 6d 83 bc a5 c3 10 bd
       -0.002754382 0.01177325 -0.016043311 -0.03534283
0003b0 b1 59 8e 3c 6b 64 f4 bc 3b d1 b6 bc e6 fd 68 bc
       0.017376753 -0.02983304 -0.022316566 -0.01422069
0003c0 b5 8c e1 3c ae cd 2f bd 17 a3 f9 bc 82 9c 0a bc
       0.027532915 -0.04292076 -0.030473275 -0.008460166
0003d0 b8 e4 2e bd d1 22 44 3d e9 c9 37 3d 80 9c 8c bc
       -0.042698592 0.047884766 0.04487029 -0.017164469
0003e0 2b 3a e2 3c 87 ad 8a ba 27 17 a1 3c e7 a9 cc 3a
       0.027615627 -0.001058028 0.01966436 0.00156146
0003f0 97 87 fd 39 80 32 15 3b 9e 61 04 3d 7d c0 27 3d
       0.00048356943 0.0022765696 0.032319658 0.040955056

linear_layers.0.1.weight f4 [256]
000000 a0 aa d3 3e 54 c1 97 3f 1f cb 8f bb e7 10 b2 3f
       0.41341114 1.1855874 -0.0043882276 1.3911408
000010 16 9a 1c 3f 1f ba ee 3e d2 fa 5e 3f f8 81 5a 3f
       0.61172616 0.46626374 0.8710147 0.85354567
000020 b6 cd 25 3f 73 3c 54 3f 57 65 39 3f e4 56 5e bc
       0.64767015 0.8290474 0.7242026 -0.013570521
000030 fc bc a1 3f 62 4a a2 3f 15 1c 8f 3f 7d 48 21 bd
       1.2635798 1.267895 1.1180445 -0.03937577
000040 08 90 73 3f 0d e8 99 3f f4 8b 39 3f d6 72 ab 3e
       0.9514165 1.2023941 0.72479177 0.3348605
000050 80 1b 1d 3f a4 0a b2 3e 94 cd a2 3f cc df 8c 3f
       0.61370087 0.34773743 1.2718987 1.1005797
000060 1b 40 7e 3f ea 02 09 3b bb ec 14 3d 05 f1 5a 3f
       0.9931657 0.0020906278 0.036358576 0.85524017
000070 04 d0 96 3f 44 38 6b 3f 03 c7 ef 3c 75 9d 4d 3f
       1.1782231 0.9188273 0.0292697 0.80318385
000080 ac 1d 54 3e 27 6e 82 3f 1d 93 9d 3e 91 33 fc 3e
       0.20714444 1.0189866 0.307763 0.49258092
000090 27 34 62 3f 52 3b c2 3f 48 4c 85 3f cc f4 df 3e
       0.8836083 1.5174353 1.0413904 0.43741453
0000a0 3f cb 8d 3f cd bf 72 3e 2c 18 1f 3d d8 1f fd 3e
       1.1077651 0.23705979 0.03884141 0.49438357
0000b0 e8 8c 31 3f 99 a0 75 3f 06 83 7a 3f cc 26 24 3f
       0.6935563 0.9594818 0.97856176 0.641217
0000c0 1c d7 35 3e 5b f8 b3 3e 2a c6 7d 3f 67 0b 49 3f
       0.17757839 0.35150418 0.991305 0.78533024
0000d0 10 d8 8d 3f e8 60 3d 3f d7 29 57 3f f5 12 9d 3f
       1.1081562 0.7397599 0.8404822 1.227141
0000e0 0b 99 90 3a d6 6d 1d 3f 4b 29 a7 3f 57 ff 20 3f
       0.0011031938 0.6149572 1.3059477 0.6288962
0000f0 b0 88 92 3f a4 69 83 3f e6 e5 08 3f 5e af f4 3e
       1.1447964 1.0266614 0.534758 0.47790045
000100 56 57 83 3f 0c 54 20 3f 88 42 cf 3e e2 cd 35 bc
       1.0261028 0.62628245 0.40480447 -0.01109645
000110 5e cf 77 3f a1 96 14 3e df 2c 3b 3d fb cf 0c 3f
       0.9680079 0.14510585 0.04569709 0.55004853
000120 6f e5 b6 3f ea 75 85 3f 1e be 34 3f b7 a1 52 3e
       1.4288768 1.042661 0.70602596 0.20569502
000130 61 47 ea 3e 11 7d 97 3f a0 a5 07 3f ac 30 70 3f
       0.45757583 1.1835042 0.529871 0.9382427
000140 02 91 5b 3f 7e 25 89 3f 62 be a9 3f 7e 63 85 3f
       0.8576814 1.0714567 1.3261225 1.0420988
000150 05 64 0c 3f e6 54 56 3f 85 20 b7 3e e3 19 05 3f
       0.5484012 0.83723295 0.35766998 0.51992625
000160 93 5b 65 3f c8 5c c0 3f d7 58 77 3f a2 74 e3 3e
       0.89592856 1.5028315 0.96619934 0.4442492
000170 37 3e 37 3c 66 7e 31 3f d9 d5 4e 3f be 45 5e 3f
       0.011184267 0.69333494 0.80795056 0.8682517
000180 36 13 37 3f 9a b9 24 bc 45 fe 89 39 0f 0b 3c 3f
       0.7151369 -0.0100540165 0.00026320122 0.73454374
000190 ea d8 c0 3e dc b0 7d 3f 8f 36 99 3f 5b b0 9e 3f
       0.37665492 0.9909799 1.1969775 1.239757
0001a0 e9 a4 88 3f e1 65 91 3f d9 bc a7 bc ce a6 ab 3f
       1.0675327 1.1359216 -0.020475792 1.341028
0001b0 38 48 04 3b ed 93 73 3f 2f a7 09 3f 37 eb cb bb
       0.0020184647 0.9514759 0.53770727 -0.006223108
0001c0 d5 fa ac 3f b9 27 63 3f 62 ba 25 3f c3 ce 74 3f
       1.3514048 0.88732487 0.6473752 0.95627993
0001d0 fe 06 84 3f c8 6b 85 3f d5 a4 85 3f d4 b1 cf 3e
       1.0314634 1.0423517 1.0440928 0.4056536
0001e0 0b 2b d7 3e 22 32 75 3f 82 85 6c 3f 0f bb 54 3f
       0.42025027 0.9577962 0.92391217 0.8309793
0001f0 bb e8 2e 3f 89 a4 6c 3f 2e d8 28 3f 5b 0a 59 3f
       0.6832387 0.9243856 0.65954864 0.84781426
000200 74 76 28 3f 51 70 ea ba 67 c7 a1 3e e9 f2 83 3f
       0.65805745 -0.0017886256 0.31597444 1.0308505
000210 6b 9a 2c 3f da 4e b0 3e 83 ca a6 3f ba 93 39 3f
       0.67423123 0.3443516 1.3030552 0.7249104
000220 07 57 8c 3e 4b 63 36 3f ee 6b 6f 3f a3 9a d4 3e
       0.27410147 0.7124526 0.9352406 0.41524228
000230 6d 1b 3e 3f 1a 17 0f 3f 52 ae e1 3e 29 08 57 3f
       0.742606 0.55894625 0.44078308 0.83996826
000240 26 9b 03 3f 21 fa 67 3f f8 a2 e5 3e a4 91 6f 3f
       0.5140861 0.9061604 0.44850898 0.93581605
000250 01 70 82 3f 7e 5b a3 3f 63 1a 96 3f 5a 34 48 3f
       1.0190431 1.2762296 1.1726803 0.7820488
000260 ba a9 a4 3e de bd f4 3e 6d 6b 39 3c 18 83 9b 3f
       0.3216074 0.47801107 0.011317116 1.2149382
000270 e3 97 35 3f d4 9d 08 3f c6 c4 9f 3f 69 3a 9e 3f
       0.70934886 0.53365827 1.2481925 1.2361575
000280 e6 56 3f 3f 3d e7 1a 3f 4e 99 c0 3e f1 ee 27 3f
       0.7474197 0.6050909 0.37616962 0.6559897
000290 8d dd 84 3f fa fa 72 3f 7a 2f cf 3e 09 5e 28 3e
       1.0380112 0.9491421 0.4046591 0.16442122
0002a0 f3 4a 03 3f d9 ab 92 ba 82 0f 4e 3c 25 60 06 3f
       0.5128624 -0.0011190131 0.01257694 0.52490455
0002b0 c6 21 83 3f a7 73 58 3f 57 56 4d 3f 80 44 90 3f
       1.0244682 0.8455147 0.8020987 1.1270905
0002c0 7d 16 7c 3f 31 66 81 3f d8 f7 f4 3e 4b c5 39 3f
       0.98471814 1.0109311 0.4784534 0.7256667
0002d0 ef ef ab 3e f3 c0 79 3f 31 3e b2 3f 45 02 4d 3f
       0.33581492 0.9756004 1.3925229 0.8008159
0002e0 79 61 a5 3f 20 4e 27 3f 92 88 93 3f 6e 83 79 3f
       1.2920371 0.65353584 1.1526053 0.9746617
0002f0 07 6c 4c 3f 14 be 20 3f 49 da 57 3f de 19 81 3f
       0.79852337 0.62790036 0.8431745 1.0086019
000300 24 50 44 3f b3 d7 3b 3f bb 17 d9 3e 35 85 4c 3f
       0.76684785 0.73376006 0.42400917 0.7989076
000310 1d 61 55 3e d0 9c 49 3e db d0 81 3f 66 73 41 3f
       0.20837827 0.19688725 1.0141863 0.7556671
000320 c6 cd c4 3e d7 fc 2a 3f 6e ce 1b 3f f7 77 2b 3f
       0.38438243 0.66792053 0.6086186 0.66979927
000330 0c 03 28 bc 82 da 1c 3f f6 a8 8b 3e bc 90 03 3f
       -0.010254633 0.61270916 0.27277344 0.5139272
000340 a2 3e 26 3f a9 b4 5b 3e a8 f6 e1 3e 85 34 4a 3f
       0.6493932 0.21455635 0.44133496 0.7898639
000350 76 92 81 3f f6 4c 8f 3f eb e4 7f 3f 24 c0 53 3f
       1.0122821 1.1195362 0.99958676 0.8271506
000360 a3 9f 87 3f f3 56 7a 3f fe a6 aa 3f b4 1c 11 3d
       1.0595592 0.97788924 1.3332212 0.035427764
000370 71 52 0c 3f a6 7d e4 3e 2d f8 36 3f ee 42 8c 3f
       0.54813296 0.44627112 0.71472436 1.0957925
000380 e6 9c 90 3e 58 19 d1 3e ca 1e 45 3f cf d2 07 3f
       0.28244704 0.40839648 0.77000105 0.53056043
000390 6e 5c 91 bc a7 26 31 3f a0 dc 0e 3f 3e 51 ce 3f
       -0.01774427 0.69199604 0.558054 1.6118543
0003a0 cc 2d a6 3f c1 e3 12 3f 07 f9 4c 3c 0d 42 fb 3e
       1.2982726 0.57378775 0.012510545 0.4907383
0003b0 2a 86 03 3f 92 e4 a0 3f 8a d2 2f 3f 1c 21 fb bb
       0.51376593 1.2569754 0.6868063 -0.007663859
0003c0 1f 45 57 3f 41 c2 3a 3f 9b 8c 7d 3f ea 39 93 3f
       0.84089845 0.7295266 0.9904267 1.1502049
0003d0 17 bc a2 3d 9e b7 86 3f 7a b8 b8 3c d8 50 89 3f
       0.079460315 1.0524786 0.022548903 1.0727797
0003e0 a7 78 dc 3e b6 8c 68 3f 39 b7 94 3f 08 bc 29 3f
       0.430608 0.9083971 1.1618415 0.6630254
0003f0 87 4c 07 3f 19 d4 1b 3f 8f fa cb 3f 84 a4 1e 3f
       0.52851146 0.6087051 1.593584 0.6196978

linear_layers.0.1.bias f4 [256]
000000 bf 19 e7 be 71 b0 2a be 23 b0 02 bf 2c f3 81 be
       -0.4513683 -0.1666887 -0.51050013 -0.25380838
000010 87 43 d7 be 36 09 09 bf 94 86 78 be be 8f 16 be
       -0.42043707 -0.5352968 -0.24270087 -0.14703271
000020 5d 38 8a be d3 a9 a6 be d8 26 be be 1e e9 fc be
       -0.26996127 -0.3255144 -0.3713901 -0.49396604
000030 cc 0f 73 be 5c d7 9e be d4 18 82 be 41 dc 0a bf
       -0.23736495 -0.3102368 -0.25409567 -0.5424233
000040 b6 88 1f be 02 51 ca be 4d 39 dc be 9a 34 ea be
       -0.15579495 -0.3951493 -0.43012467 -0.45743257
000050 a0 c2 e6 be 61 ea e1 be 16 ae f1 be 82 02 e1 be
       -0.45070362 -0.4412413 -0.4720313 -0.43947226
000060 db 78 b8 be 3b b1 e3 be f7 dc e5 be f0 46 0c bf
       -0.36029705 -0.44471154 -0.44895145 -0.5479574
000070 41 a1 85 be 64 a4 0f bf 75 25 cf be ac 56 64 be
       -0.2609959 -0.56110215 -0.40458265 -0.22298688
000080 37 a5 e4 be 8c 96 d9 bd 11 80 fa be 0d 5b 0f bf
       -0.446573 -0.10624418 -0.48925832 -0.5599831
000090 d4 9e 73 be 5b 48 d4 be 1a e7 a5 be ad 58 02 bf
       -0.23791057 -0.41461453 -0.3240288 -0.5091656
0000a0 e8 19 8b be b8 dd e7 be 9d 4c f9 be 4f 68 05 bf
       -0.27168202 -0.45286345 -0.48691264 -0.5211229
0000b0 86 d6 52 be a7 77 95 be 89 e0 8a be 2f 81 87 be
       -0.20589647 -0.2919285 -0.27124432 -0.26465747
0000c0 fa 31 cc be 06 a2 b1 be c7 4f 90 be 0d 31 a9 be
       -0.3988188 -0.34693927 -0.28185865 -0.33045235
0000d0 61 35 93 be e9 7b a7 be 6d 89 62 be 65 21 c9 be
       -0.28751662 -0.32711723 -0.22122736 -0.3928329
0000e0 63 2e 09 bf af 1c ba be 45 6d d5 be 30 d6 dc be
       -0.53586406 -0.3635001 -0.4168493 -0.43132162
0000f0 9a 16 c6 be 37 66 a2 be e2 3b b1 be 4b 92 a6 be
       -0.3868912 -0.3171861 -0.34616 -0.32533488
000100 74 ac c7 be e4 8f e5 be 51 bc 22 bf 42 cb 18 bf
       -0.3899876 -0.44836342 -0.635686 -0.59685147
000110 68 04 b6 be 29 63 1f bf 45 eb ff be 6f 16 9e be
       -0.35550237 -0.6226068 -0.49984184 -0.3087649
000120 a5 72 71 be f4 07 7e be 18 93 ac be 73 ea bd be
       -0.2357889 -0.24807721 -0.33705974 -0.37092933
000130 77 7d 81 be 6e 9e 9f be a9 df 85 be 3c 1e 34 be
       -0.25291035 -0.3117556 -0.26147202 -0.17589658
000140 3b 47 cb bd 03 94 37 be 1b ab 63 be 96 53 71 be
       -0.099256955 -0.17927556 -0.2223324 -0.23567042
000150 7a 95 ba be f5 25 b4 be ae 36 00 bf 7e b8 93 be
       -0.36442167 -0.3518521 -0.50083435 -0.28851694
000160 05 66 ce bd d0 32 92 be 19 5d 09 bf 93 6f d8 be
       -0.100780524 -0.28554392 -0.5365768 -0.42272624
000170 08 a5 00 bf 7e f8 04 bf f4 99 02 bf 35 bb 95 be
       -0.5025182 -0.5194167 -0.51016164 -0.2924439
000180 20 fa 36 be 8f 2e 03 bf 29 07 28 bf 8d f1 df be
       -0.17868853 -0.5124292 -0.65635926 -0.43738976
000190 64 a7 e5 be ff 97 c7 be 82 85 a7 be 79 14 62 be
       -0.4485427 -0.3898315 -0.32719046 -0.22078122
0001a0 85 1c e5 be 18 8b a3 be 7e ca e3 be 96 1d ba be
       -0.4474832 -0.31942058 -0.44490427 -0.36350697
0001b0 e0 4f 00 bf 36 24 bc be 8c 6e 2a bf bd e0 1e bf
       -0.5012188 -0.36746377 -0.6657493 -0.62061673
0001c0 dc 7d a9 be 30 3d 9b bd 3f 7b de be 34 ea 96 be
       -0.33103836 -0.0758003 -0.43453404 -0.29475558
0001d0 82 34 56 be 2b 2a 2f bd ce a3 af be 06 ba f8 be
       -0.20918468 -0.042764824 -0.3430466 -0.48579425
0001e0 e8 a4 20 bf 43 c0 38 be 22 41 fa be e9 21 91 be
       -0.62751627 -0.18042092 -0.48877817 -0.28346184
0001f0 62 46 8f be c8 15 a1 be f8 dc 1b be 8f 6f ad be
       -0.27983385 -0.3146193 -0.15221012 -0.33874175
000200 a1 07 4c be c1 00 25 bf 7e 6a c9 be 17 8b 96 be
       -0.19924785 -0.64454275 -0.3933906 -0.29402992
000210 b2 58 f6 be bd 7c be be 18 34 8f be fd b8 a2 be
       -0.48114544 -0.37204543 -0.27969432 -0.3178176
000220 d2 7c b6 be 7b cd df be 65 3f 6a be 55 2e db be
       -0.35642105 -0.43711457 -0.22875746 -0.42808786
000230 57 cd 4b be 3f ee af be b3 1e 9f be 5b 92 d3 be
       -0.1990255 -0.34361455 -0.3107811 -0.41322598
000240 53 eb b9 be 02 e1 c1 be f2 d6 10 bf 32 ee ca be
       -0.3631235 -0.3786698 -0.5657798 -0.39634854
000250 b8 fb 1e be 37 16 c5 be bf 19 b5 be 69 0a 3a be
       -0.1552571 -0.3849351 -0.35371205 -0.18168034
000260 73 34 b2 be 72 dc a9 be 42 4b 06 bf 8e 9e e6 be
       -0.3480564 -0.33176 -0.52458584 -0.45042843
000270 81 6d 57 be aa 05 c0 be bc eb a3 be 45 1a b8 be
       -0.21037866 -0.3750432 -0.3201579 -0.35957542
000280 42 6c fb be 25 14 99 be 72 63 e4 be 6c 23 a9 be
       -0.49106032 -0.29898182 -0.4460712 -0.33034837
000290 d6 36 f7 be 8e 69 4a be d0 4b e9 be 92 3e c9 be
       -0.48284024 -0.19766828 -0.45565653 -0.3930555
0002a0 12 33 a4 be 04 7c e9 be 0c e5 06 bf 37 78 01 bf
       -0.32070214 -0.4560243 -0.5269325 -0.5057406
0002b0 e3 bf b1 be d5 bd ae be a8 0b cd be 6b 38 15 bd
       -0.3471671 -0.34129205 -0.40047956 -0.036430757
0002c0 86 38 8f be 01 81 bd be 3d db 9e be 21 0d aa be
       -0.2797281 -0.37012485 -0.3102664 -0.33213142
0002d0 58 80 b1 be a4 91 ea bd 4c 1e 8d be ae 95 22 be
       -0.3466823 -0.1145356 -0.27562177 -0.15877411
0002e0 e6 f4 e5 be 32 06 8d be 21 69 28 be 2b 38 26 be
       -0.44913405 -0.2754379 -0.16446353 -0.16232364
0002f0 b2 ec d3 be 7a ed 57 be b7 b1 7d be ea f6 47 be
       -0.41391522 -0.21086684 -0.24774824 -0.19527784
000300 da b5 c8 be 0b d7 8c be 87 0e 04 bf 5e db 71 be
       -0.39201242 -0.27507815 -0.51584667 -0.23618838
000310 b8 f5 0f bf 4b 89 ef be 3c 20 a4 be 49 b4 02 bf
       -0.5623431 -0.46784434 -0.32055843 -0.51056343
000320 c9 82 d8 be f2 ac 78 be b4 4c 74 be 61 7e 04 be
       -0.4228728 -0.24284723 -0.23857385 -0.12938835
000330 27 55 fa be e3 04 81 be c4 ba f8 be 21 9a bd be
       -0.4889309 -0.2519904 -0.4857999 -0.37031654
000340 8a 75 6b be 17 ed d9 be 7f 91 96 be 2e 26 9e be
       -0.22994056 -0.42563698 -0.2940788 -0.30888504
000350 a8 e4 be 3b 98 c7 e0 be ff 56 71 be 96 a5 e7 be
       0.005825598 -0.43902278 -0.23568343 -0.4524352
000360 66 e0 d7 be 6a fd 1f be 94 c8 c3 be 5d dd 07 bf
       -0.4216339 -0.15624014 -0.38238966 -0.5307215
000370 12 69 8a be 69 a4 b3 be fb 84 b0 be 01 6d cd be
       -0.27033287 -0.35086372 -0.34476456 -0.40122226
000380 ce 4b 09 bf da 34 ea be 7e d9 21 be 66 db 97 be
       -0.53631294 -0.45743448 -0.15805623 -0.29659575
000390 78 1e ef be 1b 9a ac be 4f 75 07 be 6e 97 c9 be
       -0.46702933 -0.33711323 -0.13228343 -0.39373344
0003a0 f4 b4 88 be d9 8b f2 be 89 12 1c bf ff 84 ed be
       -0.26700556 -0.4737232 -0.6096578 -0.4639053
0003b0 83 95 af be c2 6e af be 08 c8 4b be c1 8b 13 bf
       -0.34293756 -0.3426419 -0.19900525 -0.5763512
0003c0 a1 3e 52 be 26 18 ca be 50 b7 ff bd f1 76 f3 be
       -0.20531704 -0.3947155 -0.12486136 -0.47551683
0003d0 98 fc da be 52 8a 99 be c7 ef 0d bf 97 d7 a8 be
       -0.4277084 -0.29988343 -0.55443996 -0.32976982
0003e0 58 3a a3 be 58 ce 49 be 07 26 18 be d3 3d 7c be
       -0.3188045 -0.1970762 -0.14858256 -0.24632959
0003f0 bf de 03 bf 93 25 a9 be 53 8c 9d be d1 6f 89 be
       -0.5151176 -0.3303648 -0.3077112 -0.26843122

linear_layers.0.1.running_mean f4 [256]
000000 22 a1 3f bf 62 f5 02 bf a9 f3 95 3f 18 f5 d5 bf
       -0.74855244 -0.51155674 1.1714984 -1.6715422
000010 00 15 7b bf 33 17 13 40 46 8f ca bf e9 43 c6 3f
       -0.9807892 2.298291 -1.5824974 1.5489475
000020 dd d4 50 be 22 c9 45 c0 9b 12 12 3d cd 3b d9 3f
       -0.20393701 -3.0904012 0.035662275 1.6971375
000030 93 b6 72 bf 85 fa 06 3d 9f 44 ab bf 88 0a 02 bf
       -0.94809836 0.032953758 -1.3380316 -0.5079732
000040 2a 30 b0 3f 46 34 52 3f 49 0a 42 3c 63 f3 d0 be
       1.3764699 0.8211101 0.0118432725 -0.4081069
000050 ba ce 60 40 34 e9 2f c0 27 52 94 bf 0c 98 95 bf
       3.5126176 -2.7486086 -1.1587571 -1.1687026
000060 7e ad 7f bf ab 25 96 bf 8d 50 0c bf 2a 4f 41 bf
       -0.99874103 -1.1730245 -0.5481041 -0.7551142
000070 a8 b4 1f c0 b9 43 f5 3e 8c 14 72 be 86 c4 70 3f
       -2.4954014 0.4790323 -0.2364065 0.9404987
000080 f7 95 02 be c7 92 86 3d 24 65 97 bf b2 8d c3 3f
       -0.1275252 0.06570964 -1.1827741 1.5277617
000090 2e 6e 70 3f 21 c3 d2 bf fb a7 05 bf e2 36 fb 3f
       0.9391812 -1.6465799 -0.5220944 1.9626124
0000a0 40 c9 52 3e 47 dc 65 be 8d d7 11 c0 cd 1f b3 bf
       0.20584583 -0.2244731 -2.2787812 -1.399408
0000b0 1d 28 30 3f ab 5d 17 c0 ed 43 bd be 14 fb 61 40
       0.6881121 -2.365092 -0.36965886 3.5309496
0000c0 91 ec ae bf b7 9d f1 3e cf 01 7a bf c2 c7 57 bf
       -1.3665944 0.4719064 -0.9765901 -0.8428918
0000d0 c8 c3 2d bf 81 16 be 3e 46 7e 9f 3f dc 85 ca bf
       -0.67876863 0.37126544 1.246041 -1.5822101
0000e0 11 8d d6 3f 9e df c3 3f 06 39 e4 be 5c bd 71 bf
       1.67618 1.5302618 -0.44574755 -0.94429564
0000f0 9b f8 1d c0 90 31 18 c0 96 24 53 bf ac 5f 69 bf
       -2.4682987 -2.378025 -0.824777 -0.9116161
000100 27 e8 a8 bf f4 45 c4 3f b4 f0 3f 40 39 a6 05 3f
       -1.3195847 1.5333848 2.9990664 0.5220676
000110 c3 ba 8b 3f 1e d8 9d 3f 78 17 72 bf e9 96 c9 bf
       1.091637 1.2331579 -0.9456706 -1.5749179
000120 1f 52 9a bf bb f4 d1 bf 92 04 29 be e3 e4 85 3f
       -1.2056311 -1.6402811 -0.1650565 1.0460476
000130 0a f5 cc bf a0 91 a9 3e f7 19 c5 be b5 ed 81 3f
       -1.601228 0.33118916 -0.38496372 1.0150667
000140 08 96 82 3f 39 8a 95 bf 68 69 ff bf b5 49 a2 3f
       1.0202036 -1.1682807 -1.9954042 1.2678744
000150 d7 74 7f 3f ce 49 ee 3e 3e 37 d7 bf 2d 82 ca be
       0.9978766 0.46540684 -1.6813734 -0.3955244
000160 c4 97 70 3f de 6f c7 bf 0f 75 1a c0 2a de 93 bf
       0.93981576 -1.5581014 -2.4133947 -1.1552174
000170 a6 bb 0a 3f fb 22 0f c0 04 76 bc be 82 15 cd bf
       0.5419258 -2.23651 -0.3680879 -1.6022189
000180 96 a9 a7 bf 31 93 9d be 08 39 33 3f 19 9a 14 3f
       -1.3098629 -0.3077636 0.700089 0.58047634
000190 b7 c5 f1 3f 26 f7 01 3c 3b c7 f0 bf af 92 ae bf
       1.8888463 0.00793246 -1.88108 -1.3638514
0001a0 0d 7a 8e bf 53 56 3d be 4b c9 d6 3f bd 09 3b bf
       -1.1130997 -0.18489961 1.678018 -0.73061734
0001b0 9c b7 07 3e e7 61 b0 bd 90 80 44 40 f5 7a a9 3f
       0.13253635 -0.086124234 3.0703468 1.3240649
0001c0 0c 6a b7 3e 56 f7 28 3f 06 61 9a bf 64 62 7c bf
       0.35823095 0.66002405 -1.2060859 -0.9858763
0001d0 54 33 b8 bf 21 fe 2f 3f 0c bc a3 be 33 bd 82 3f
       -1.4390664 0.68747145 -0.31979406 1.0213989
0001e0 84 99 48 40 02 e7 de 3f 65 c1 8e 3f 61 db cd bf
       3.1343699 1.7414248 1.1152769 -1.6082574
0001f0 8f 44 8a bf b6 23 7b 3f 98 00 13 c0 4a 2e 67 bf
       -1.0802172 0.98101366 -2.2969112 -0.90305007
000200 82 70 97 bf 50 3b cb 3f 4b 87 9a 3e 43 f9 00 bf
       -1.183121 1.5877476 0.30181345 -0.50380343
000210 81 4a 94 be 22 ec 8e bf 3f 77 85 bf 3c 66 bf bd
       -0.28963092 -1.1165812 -1.0427016 -0.093456715
000220 6d 44 97 bf 89 07 98 3e 29 9f e8 be 31 17 7a 3f
       -1.1817757 0.2969325 -0.4543393 0.9769164
000230 89 8e b6 bf 98 4b ce bd 03 6a 22 3f 8c 4c 5d bd
       -1.4262248 -0.10073012 0.6344301 -0.05402808
000240 06 9d c4 bf cc b7 41 be d4 9d 86 3f 28 b7 18 bf
       -1.536042 -0.18917769 1.0516915 -0.59654474
000250 d8 8c 13 3f 0d 67 04 bf f8 bd f4 bf 14 46 7b 3f
       0.57636786 -0.51719743 -1.9120474 0.98153806
000260 21 ab c8 3e 19 a4 78 3f 89 fc ab 3f 67 a3 88 be
       0.3919306 0.97125393 1.3436443 -0.26687166
000270 0d 18 f3 be e1 e1 90 bf 71 57 34 bf 3a 14 0b c0
       -0.47479287 -1.1318933 -0.70445925 -2.1731095
000280 5f df 97 3f b7 3d 3c 3f f4 bd 0e c0 fd 34 e2 3d
       1.1865042 0.7353167 -2.2303438 0.11045263
000290 1c 87 cf bf 2a 5a b7 be 3f 75 a7 bf 05 0d 26 c0
       -1.6213107 -0.35810977 -1.3082656 -2.5945446
0002a0 a6 c1 76 3c cc 4f 7d 3f bd 5d 38 3f 39 18 e5 bf
       0.015060818 0.98949885 0.72018033 -1.7898017
0002b0 02 59 aa bf c7 09 27 bf 41 fe c4 bf f0 17 ac bf
       -1.3308413 -0.65249294 -1.5390092 -1.3444805
0002c0 2e 25 54 3f eb ec aa bd ec 9b 47 be fe a8 c3 3c
       0.8286923 -0.0834597 -0.19493073 0.023884293
0002d0 7f 97 c6 be 37 56 ed bf 7d 17 05 bf e0 9b 1e 3b
       -0.38787457 -1.8541936 -0.51988965 0.0024201795
0002e0 84 8e e0 3e ca e5 1b 3e 88 c4 50 bf 8a 9e 8f 3f
       0.4385873 0.15224376 -0.8154988 1.1220257
0002f0 13 df 85 be 5a 9f 63 be 2e 93 1d 3e 58 8d a4 bf
       -0.26146755 -0.22228757 0.15388176 -1.2855635
000300 dc 02 8d bf 57 c7 72 3e 2c 0d 54 3e d8 fd 78 bf
       -1.1016498 0.23708855 0.2070815 -0.97262335
000310 48 52 5a bf cb c3 a0 bd 3a 8a b6 be 4f 05 af bd
       -0.852818 -0.078498445 -0.35652333 -0.085459344
000320 6a 88 0c c0 03 88 cb bf 55 37 97 bf a8 44 65 3f
       -2.195826 -1.5900882 -1.1813761 0.89557886
000330 03 5c 3d 3f 5e 8f 9f bf 87 53 6d 3d 9b dd ae 3f
       0.73968524 -1.2465627 0.057940986 1.3661379
000340 dc 6d a3 3f d7 14 ed 3e 5b 28 3d bf 63 43 23 c0
       1.2767901 0.46304962 -0.738897 -2.550988
000350 9e ae c9 3e 8d 40 c2 be 40 5c ed be f3 2a 8c 3e
       0.39391035 -0.37939873 -0.46359444 0.27376518
000360 f6 52 db bf 35 8c 95 3d b3 af 9a bf ae 8d be be
       -1.7134693 0.07302133 -1.2084869 -0.37217468
000370 1b d5 c2 bb 19 aa c3 3e f4 55 7e 3f 58 73 89 3f
       -0.0059458143 0.38215712 0.99349904 1.0738325
000380 a6 59 a6 bf d2 bd b4 be 12 d9 b3 bc bc a7 43 40
       -1.2996109 -0.3530107 -0.021954093 3.0571127
000390 c6 d7 98 3e 1a 36 74 3e 8f 6e 07 40 13 60 f0 be
       0.29852122 0.23848763 2.116123 -0.469483
0003a0 c5 4a e5 bf 34 1a 93 3f a9 4a 98 bf f8 d1 12 40
       -1.7913443 1.1492372 -1.1897784 2.2940655
0003b0 34 74 4d 3d 43 cf 30 bf 7b e6 f4 3d a7 d1 3a c0
       0.050159648 -0.69066256 0.11958023 -2.9190462
0003c0 94 d0 9b 3e 2a b5 03 bf 33 cf 46 be 94 7b bf bf
       0.3043257 -0.5144831 -0.19414978 -1.4959588
0003d0 4f 3c a4 bf a5 9d ae bf e6 8a 56 bd 85 41 2b c0
       -1.2830905 -1.3641859 -0.052378558 -2.675874
0003e0 37 c7 03 bf 68 ba bc bf 8b b4 17 3e 07 2e 4b bf
       -0.5147585 -1.4744387 0.14814965 -0.7936711
0003f0 33 db e0 be 1f fb ff bf 55 a1 a7 be aa e6 84 bf
       -0.43917236 -1.9998511 -0.32740274 -1.0382893

linear_layers.0.1.running_var f4 [256]
000000 01 0a f1 40 23 b6 04 40 2b 4f d2 40 44 06 27 40
       7.532471 2.0736167 6.572164 2.6097574
000010 cd 73 e1 40 0c e0 ff 40 b8 0f bf 3f 54 0d a7 3f
       7.045386 7.9960995 1.4926672 1.3050942
000020 fd e3 20 40 74 a1 87 40 68 8c 73 40 36 c3 d5 40
       2.5139153 4.2384586 3.8054447 6.6800795
000030 a1 67 b7 3f d5 8d fc 3f 84 f1 3b 40 86 f6 04 41
       1.43285 1.9730784 2.936616 8.310186
000040 ea 30 af 3f 0a 82 03 40 e6 a5 04 40 89 c1 c0 40
       1.3686802 2.054812 2.0726256 6.023625
000050 b8 f6 2d 41 2b 9d 13 41 fc 04 c3 3f 51 f5 04 40
       10.872734 9.225871 1.5235896 2.077473
000060 a9 23 f0 3f 3d e1 24 41 7f f5 d3 40 7b ca e7 3f
       1.8760883 10.30499 6.623718 1.8108667
000070 9e ac 21 40 e2 36 96 3f c0 14 c7 40 9e 08 16 40
       2.5261607 1.1735499 6.221283 2.344276
000080 87 f3 ce 40 4c 26 14 40 fe 02 1a 41 66 91 a8 40
       6.4672275 2.3148375 9.6257305 5.267749
000090 11 f4 ea 3f 32 8c fc 3f d6 6c d6 3f 28 4c 79 40
       1.8355733 1.9730284 1.6751964 3.8952732
0000a0 09 cf b6 3f 2f 9c e8 40 62 95 4a 41 67 e8 4f 40
       1.4281932 7.2690654 12.66147 3.2485597
0000b0 19 1c 44 40 24 53 f3 3f 45 13 32 40 cb 4d 99 40
       3.064215 1.9009748 2.782426 4.790746
0000c0 b3 70 00 41 4b 63 b6 40 2c 3e 34 40 23 8b fb 3f
       8.027514 5.6996207 2.8162947 1.9651836
0000d0 a1 a1 a5 3f 4c da 01 40 c3 ef 14 40 a6 ab a9 3f
       1.293995 2.0289488 2.327134 1.3255508
0000e0 b9 d4 25 41 e7 71 2e 40 2c f4 d5 3f 52 df 8e 40
       10.364434 2.725702 1.671514 4.464761
0000f0 ff 3a 0f 40 16 da 29 40 e0 b2 05 41 b4 3e 90 40
       2.2379758 2.653936 8.356171 4.507654
000100 a2 af 09 40 12 37 a7 40 3b 04 25 41 25 8a e0 40
       2.1513448 5.2254725 10.313533 7.0168633
000110 f6 5b d2 3f d0 f5 cc 40 6d 73 a8 40 00 97 8f 40
       1.6434314 6.4050064 5.26409 4.4871826
000120 b7 eb 2c 40 c3 0c d9 3f 57 ff 5e 40 22 30 aa 40
       2.701887 1.695702 3.4843347 5.3183756
000130 5d d3 0e 41 b2 87 68 3f 44 22 d6 40 e3 6d ee 3f
       8.926602 0.90832055 6.691683 1.8627285
000140 ed f6 0b 40 ee e3 62 40 5a 84 1a 40 79 c7 ca 3f
       2.1869462 3.5451617 2.414328 1.5842124
000150 68 91 a7 40 22 20 04 40 6a ca 1c 41 e2 fa b2 40
       5.2365 2.0644612 9.7994175 5.5931253
000160 08 d0 32 40 cf 9a 07 40 76 7d 0c 40 5c ad 3d 40
       2.7939472 2.1188238 2.1951575 2.963706
000170 64 5c 08 41 95 67 4a 40 bf 60 29 40 80 c3 1a 40
       8.522556 3.1625721 2.64653 2.4181824
000180 04 34 8a 40 ab 2e ec 40 c1 85 ef 40 ae e1 1d 40
       4.3188496 7.380697 7.4850774 2.4668994
000190 8a 19 e5 40 ca ba d4 3f 41 61 cb 3f dd 0d d5 3f
       7.1593676 1.6619503 1.5889055 1.6644856
0001a0 ad 3a ca 3f 0a c4 a0 3f 95 e4 e0 40 69 e7 0e 40
       1.5799156 1.2559826 7.027903 2.2328742
0001b0 d1 d1 0e 41 7e ab 23 40 cb 48 35 41 24 d3 c5 40
       8.926225 2.557342 11.330272 6.182024
0001c0 b8 5d a9 3f b6 20 5f 40 15 ff 16 40 e5 cc 08 40
       1.3231726 3.4863715 2.359319 2.1375058
0001d0 cf c3 30 40 02 a3 07 40 1c 6c 90 3f 78 96 85 40
       2.7619512 2.1193242 1.1282992 4.174618
0001e0 b1 4d 22 41 76 e5 30 40 7e f3 1a 40 85 12 56 40
       10.143968 2.7640052 2.4211116 3.3448803
0001f0 8a cb 86 40 ee 66 b0 3f 7c b2 a6 40 92 e4 1a 40
       4.212346 1.3781412 5.2092876 2.4202008
000200 d9 c7 80 40 64 f7 06 41 45 e2 14 41 f1 46 db 3f
       4.0243955 8.435398 9.305242 1.7131025
000210 f6 dd 2d 40 61 fa a8 40 de df fd 3f 96 98 ce 3f
       2.7166724 5.280564 1.9833944 1.6140316
000220 6f 80 c2 40 5b 85 e4 3f e4 53 13 40 69 1f c6 40
       6.078178 1.7853197 2.3019953 6.1913342
000230 f2 30 25 40 b3 2d 29 40 bd d1 a6 40 6c 8b 5f 40
       2.5811124 2.6434143 5.213103 3.4928846
000240 80 a2 7e 40 29 64 2a 40 2c 6b 7d 40 d0 cc dd 3f
       3.9786682 2.6623633 3.9596663 1.7328129
000250 ed 94 94 3f 5b 97 ea 3f 9f 34 f6 3f d3 23 35 40
       1.1607949 1.832744 1.9234809 2.8303115
000260 06 a4 1b 40 ba e9 75 40 18 45 d3 40 b7 74 b5 3f
       2.4318862 3.8423905 6.6021843 1.4176244
000270 a8 2b de 3f 57 59 05 41 bb e4 ca 3f 80 f1 f1 3f
       1.7357073 8.3343115 1.5851053 1.8901825
000280 f3 40 2f 40 f3 a5 aa 40 0e 6f a8 40 2c 43 46 40
       2.7383392 5.3327575 5.2635565 3.0978498
000290 fd 48 1c 40 55 55 04 40 33 7d 0a 41 5f 34 0b 41
       2.4419549 2.0677083 8.655566 8.700286
0002a0 2a 29 4f 40 7c 50 ec 40 e1 08 2a 41 ce 5b 0a 40
       3.2368875 7.3848248 10.627168 2.1618533
0002b0 33 6c 0d 40 62 4c e5 3f 0a d6 69 40 82 2c 91 3f
       2.209729 1.7913935 3.653689 1.1341708
0002c0 b0 c5 98 3f b2 98 f6 3f 28 57 5b 40 0d 52 7d 40
       1.193533 1.9265349 3.4271946 3.958133
0002d0 18 4a b3 40 c8 d9 11 40 9b c5 b1 3f f6 be 04 40
       5.6027946 2.2789173 1.3888429 2.0741553
0002e0 1c 13 ee 3f 5c ea 2d 40 66 5c 1b 40 8a dc 29 40
       1.8599582 2.7174292 2.4275146 2.6540856
0002f0 78 32 de 3f 7b ac 83 40 bf 52 dd 3f 74 70 12 40
       1.7359152 4.1148047 1.7290877 2.2881136
000300 92 33 35 40 b2 7b b3 3f 8e 20 d4 40 91 f4 18 40
       2.8312726 1.4022124 6.628974 2.3899271
000310 9f ae e7 40 9b cd c7 40 43 38 ea 3f 07 be 40 40
       7.240066 6.2438483 1.829842 3.0115983
000320 39 e0 96 40 68 be 8d 40 fa 47 97 40 20 ce 7a 40
       4.714871 4.429493 4.727536 3.9188309
000330 1d 34 d2 40 1a 6f de 40 c0 dd b8 40 7b 91 4d 40
       6.5688615 6.951062 5.777069 3.2120044
000340 e2 86 3f 40 54 de 02 41 b3 13 dd 40 40 b3 19 40
       2.9926076 8.179279 6.9086547 2.4015656
000350 62 6e d3 3f 98 4f a6 3f 93 7e 12 40 e4 b4 5b 40
       1.6518061 1.299304 2.2889755 3.4329157
000360 c5 90 d9 3f 6d c6 a2 3f 80 9e f4 3f 1f e0 0e 41
       1.6997305 1.2716805 1.911087 8.929717
000370 57 34 c1 40 31 43 d9 40 01 e9 29 40 4d 83 fc 3f
       6.037639 6.789452 2.6548464 1.972757
000380 86 ca fb 40 e5 72 a2 40 65 ba 81 40 a1 60 f4 40
       7.868472 5.076525 4.0540032 7.6367955
000390 c0 b7 18 41 fd 4b fd 3f f7 30 94 40 cd 48 0d 40
       9.544861 1.9788815 4.630977 2.2075684
0003a0 f2 84 cc 3f 25 66 2d 40 dc bb e9 40 12 e4 d0 40
       1.5978072 2.7093594 7.304182 6.5278406
0003b0 04 0e 91 40 43 e6 cc 3f 83 b1 2b 40 4d 9b 11 41
       4.532961 1.600777 2.6827095 9.100415
0003c0 14 c2 5b 40 b0 30 05 40 98 37 cd 3f 6a b6 dd 3f
       3.4337206 2.0810966 1.6032591 1.7321293
0003d0 c5 af 04 41 4f 6b 06 40 ea 4d 14 41 3b f7 c8 3f
       8.2929125 2.1002996 9.269022 1.5700449
0003e0 5d 51 b3 40 77 f5 0f 40 94 e5 f0 3f ad af 07 40
       5.603682 2.249357 1.8820062 2.1200974
0003f0 4c c2 7d 40 94 e5 7a 40 ff 65 f4 3f 57 b2 d1 40
       3.964984 3.9202623 1.9093627 6.55302

linear_layers.1.0.weight f4 [128, 256]
000000 5d 55 a8 3e 15 6d 0f 3c bd c7 31 3e 08 98 9b 3d
       0.32877627 0.0087540345 0.1736135 0.07597357
000010 99 32 91 be 5e 3c b1 3e 41 3b 74 3c 35 d4 d2 3e
       -0.28358915 0.3461637 0.014906705 0.41177526
000020 d8 62 31 be f2 f5 24 bd c1 fd 83 bd 71 a9 e5 3c
       -0.17322862 -0.040273614 -0.06444884 0.028034898
000030 e0 c8 b4 3d d8 08 03 be a2 f9 8a 3e 8e 05 de bd
       0.08827376 -0.12796342 0.2714358 -0.10840903
000040 2c 92 79 3c d5 e0 29 3d c6 aa 03 be 85 d2 c0 bd
       0.015232604 0.041474182 -0.12858114 -0.094151534
000050 22 ac 26 3e f1 f0 8a be d8 96 19 3d 5c 43 09 3e
       0.16276601 -0.2713695 0.03749737 0.13404602
000060 30 df 36 3e 07 1d 92 be 64 20 20 3e 87 3d 1d bc
       0.17858577 -0.2853777 0.15637356 -0.009597189
000070 42 16 c0 3c c4 3b 4a bd 8c 95 7d be ba dd d3 3d
       0.023448113 -0.049373403 -0.24764079 0.10345025
000080 33 fd 23 be 68 96 d3 bd bb f1 84 be 54 04 f6 bd
       -0.16014557 -0.10331422 -0.25965676 -0.12012544
000090 e5 14 01 be d0 d7 94 3d 4e a6 c4 3e 1e 7c b5 3e
       -0.12605627 0.072677255 0.3840813 0.35446256
0000a0 da ec de 3e 3b e2 62 3e a6 79 47 bd af 90 3b be
       0.43540078 0.22156613 -0.048699997 -0.18316911
0000b0 85 f2 2e 3e bb 21 94 3e cc d9 da bc 86 77 41 bd
       0.17084701 0.28931984 -0.026715182 -0.047233127
0000c0 58 b2 46 3d ad 11 0f 3e a5 fc af bd ba e4 89 3e
       0.048509926 0.13971587 -0.0859311 0.26932317
0000d0 54 8c c5 3c 83 63 63 3e 12 60 cb 3d 08 f6 12 be
       0.024114765 0.2220593 0.09930433 -0.14351666
0000e0 99 91 1b 3e 8b 71 c3 3e d7 1b f6 3d d3 5c d1 3d
       0.1519226 0.38172564 0.12017029 0.10222783
0000f0 ee 86 a5 3e 0e f6 7f 3e b1 7c 9f 3e e4 df 9e 3e
       0.32329506 0.24996206 0.3114982 0.3103019
000100 a3 1f e2 ba 7d 64 9b 3e 07 2b ce 3d cc 3b 7f 3e
       -0.001725186 0.30350104 0.100668006 0.24925154
000110 03 45 19 3e c9 8a 6b bd ec 01 89 3c 4f d3 e4 bd
       0.14967732 -0.057505403 0.01672455 -0.111731164
000120 1a ff 84 3d a4 9e 8c 3c 76 1c cf bd 4d b4 44 3d
       0.06493969 0.01716549 -0.1011285 0.04802351
000130 8c e3 58 3d d3 94 53 3d 2e 29 22 be 86 b3 59 3d
       0.05295138 0.0516556 -0.15836021 0.053149723
000140 d2 d1 a7 be f8 9b e1 bc 0d e9 1a 3e 80 44 36 bb
       -0.32777268 -0.027540192 0.15127964 -0.0027811825
000150 d2 b1 e5 3e 93 a5 f9 3d 1f ff a4 3e 3c 74 0d 3d
       0.4486223 0.12189784 0.32225892 0.034534678
000160 62 9f 0d 3e 69 51 60 3e 58 a1 f4 bd 7f 7b d1 bd
       0.13830331 0.21906056 -0.119448364 -0.10228633
000170 34 86 5c 3e c1 00 db bd 76 f7 37 be 76 65 c6 bd
       0.2153557 -0.10693503 -0.17965493 -0.09687321
000180 e7 e0 ec 3e 07 a2 32 be 09 f8 a8 3d b8 6b aa 3c
       0.46265337 -0.17444621 0.08250434 0.020803317
000190 02 4c 67 3d 6e 25 ec 3e b1 17 2b 3e ef 80 c1 3e
       0.05646897 0.46122307 0.16708256 0.3779368
0001a0 c4 59 d4 3d ed bf 4c 3e 57 6a 42 3d 54 f6 b2 3d
       0.10368684 0.19995089 0.047464695 0.087383896
0001b0 fa 10 bb 3d e5 76 3b 3d 93 10 e6 3e 8c b8 08 bd
       0.091340974 0.045767684 0.4493452 -0.033379123
0001c0 76 ff f5 3e b3 79 91 be 97 a9 a7 be 52 13 8a 3e
       0.48046464 -0.28413162 -0.32746574 0.26967865
0001d0 4b 38 c4 3d 64 57 d2 bc da a9 71 3e 6b 30 fe 3e
       0.095810495 -0.025676437 0.2359995 0.49646315
0001e0 39 62 99 3e 73 f6 b1 be 51 29 0c 3f f4 00 93 bd
       0.2995775 -0.34758338 0.54750544 -0.07177916
0001f0 3c b6 05 3e a7 88 74 be bb 6f c8 bd 3a e0 14 bd
       0.13057798 -0.23880254 -0.09786936 -0.03634665
000200 20 ed 36 be 1b 37 4e 3d f1 0c a3 3e 91 67 9c 3e
       -0.17863894 0.05034552 0.3184581 0.30547765
000210 68 34 a2 be 62 05 37 3e 70 17 03 3e 57 bd cc ba
       -0.31680608 0.17873147 0.1280191 -0.0015620393
000220 d9 79 fe 3c d7 36 31 be ab 1d ce bd 91 3e cc bd
       0.03106396 -0.17306076 -0.100642525 -0.09972871
000230 e7 59 34 be 27 c5 c2 3b 7b 1f 83 be cc e6 e2 3d
       -0.1761242 0.0059439125 -0.25609955 0.11079177
000240 ca 89 81 bb 94 31 ee bc 4f db 54 be 64 9b ec 3e
       -0.0039531933 -0.029076375 -0.20786785 0.46212304
000250 f0 24 96 3d d5 ec a0 3d 7f b3 40 bc 87 6c a7 be
       0.07331264 0.07857672 -0.011761545 -0.32699987
000260 21 63 02 3e 45 c4 42 be 8d b4 94 bc ed 2f 92 bd
       0.12733127 -0.19020183 -0.0181525 -0.07138047
000270 43 e9 73 be 12 9a eb 3e 5c 5b 36 3e 84 12 88 3d
       -0.23819451 0.46015984 0.17808288 0.066441566
000280 dd cb cd be 98 cd c3 3e fd 60 1a 3e f2 38 c3 bd
       -0.40194598 0.38242793 0.1507606 -0.09532346
000290 59 a1 40 3e 89 ed 01 3e a7 bc 1e 3e d4 a8 40 be
       0.18811549 0.12688269 0.15501653 -0.18814403
0002a0 9a a3 34 be 9f 83 a4 3d 51 5b 23 be d2 eb 36 3e
       -0.17640534 0.08032917 -0.15952803 0.17863396
0002b0 2e 6a 57 be 1e 30 4e 3d 9f 8e 80 bc a8 e3 fc 3b
       -0.21036598 0.050338857 -0.015693007 0.0077175684
0002c0 43 f2 d9 be 65 b9 00 3e ec a4 37 3e 5c 9f 5d 3e
       -0.42567644 0.12570722 0.17934006 0.21642822
0002d0 b3 e2 c0 bd 96 cf 0e 3e bc 9c c0 3c 9d ff 9c 3e
       -0.094182394 0.13946375 0.023512237 0.30663767
0002e0 6b 19 8e 3d 52 43 38 bd f5 eb b4 3c 01 18 0c 3f
       0.06938442 -0.044986077 0.02208517 0.5472413
0002f0 dc 6f 43 3e af f6 26 3e 38 ea a3 be 0e ed c5 bd
       0.1908564 0.1630504 -0.32014632 -0.09664355
000300 a4 14 41 3d 0d 1c 67 bd 67 4c cf 3e 4e 73 2e be
       0.047138825 -0.056423236 0.40487978 -0.17036173
000310 30 bf 8c 3b 15 0b 94 3d c7 bf 82 3e de 2f 00 3e
       0.0042952523 0.07228676 0.2553694 0.1251826
000320 d5 53 cd bd e1 3a 80 3e 3c da 94 bd b3 b3 bb bd
       -0.10025755 0.2504492 -0.072681874 -0.09165134
000330 46 18 bf 3d e4 1c 5d be 6b 7f bf 3e 59 71 8c 3b
       0.09330802 -0.21593052 0.374019 0.004285973
000340 01 9b 8b 3d 83 ef 2e 3e 3f 4a 34 be 7d 60 03 3e
       0.06816674 0.17083554 -0.17606448 0.12829776
000350 d1 72 51 be e8 87 e5 bd 32 f5 62 3e 30 1e 65 bd
       -0.20453955 -0.11207563 0.22163847 -0.055936992
000360 d8 54 87 3e 84 79 65 be 65 6e 69 bc 05 2a 39 3e
       0.26431918 -0.22409636 -0.0142475115 0.18082435
000370 10 02 0b bd 78 bd bb 3e e5 6f 62 be b2 08 11 be
       -0.033937514 0.3666799 -0.22112997 -0.14163473
000380 f5 21 cc bd ad 8a 22 bd 32 b8 d8 bd 39 4c a8 3e
       -0.09967414 -0.039683033 -0.105820075 0.32870653
000390 c0 8c 12 3d d2 7e 64 3e 06 fc 4a 3e 37 85 1d 3d
       0.03577876 0.22314003 0.19822702 0.03845712
0003a0 b8 5a 04 be 33 95 35 3e 4b 11 af bd 46 e1 cb 3e
       -0.12925231 0.17732696 -0.0854822 0.39820307
0003b0 a1 61 99 be cf 81 e5 bc df 6b a7 be 3d 82 05 be
       -0.29957297 -0.028016 -0.32699487 -0.13037963
0003c0 f8 2f 5f 3e 28 56 90 be d8 6c 9b bd c8 b0 1e 3e
       0.21795642 -0.28190732 -0.0758912 0.15497124
0003d0 5b 10 16 be 3e 15 2e 3e b6 61 14 be 35 36 06 3e
       -0.14654677 0.17000291 -0.14490399 0.13106616
0003e0 5d a6 cf bd e9 12 61 3c bf ed 0d be d4 37 f7 be
       -0.10139153 0.013737419 -0.13860224 -0.4828478
0003f0 df 27 15 3e e7 1c 7e 3e 40 70 8a 3e 6b 16 e4 3e
       0.14565991 0.24815713 0.27038765 0.44548354
